Training data/ex3weights2.npy (npy, 2208 bytes, 1 tensors)

array (column-major) f8 [10, 26]
-0.7610035157900087 -0.6178517633690394 -0.6893407193248615 -0.6783247872081947 -0.5966433902861746 -0.8779490670795654 -0.5274652726066207 -0.7490154009506351
-0.666546802779542 -0.460891191124383 -1.2124449845935756 0.6155920681576614 -1.94538150673725 0.4629922649114411 -2.0448179883372153 0.4344112017530299
1.2156428794395695 -0.7224905608478662 0.5360184459360284 -1.4394495400773304 -0.10187130518269369 -1.265506387372895 2.013606180762646 0.5849232052139954
2.0569840731768902 -0.9316104906411962 -1.500959813541986 -3.1522817286704385 1.3030757311227075 -1.2180950867100249 -2.3685008511942134 1.8574541847255195
-3.123161878079255 -0.16501839969787307 1.9510090941997118 0.18390777691057442 -2.031953588396862 0.365777782869682 -1.0337271373609587 0.7109301096393872
-1.057781287318013 -0.9185331949622381 -0.2361762997069571 1.9326419202991687 0.17637699071113047 -0.36078216069357794 -1.5236673397793215 0.1981136232322631
-4.030847527504247 0.45216919337465805 -2.2082362949392556 -0.0550258925226311 1.3868094701624283 -0.22965765349768263 -2.161412177602033 0.6195813740937385
-2.4373207889114794 -0.730599456004883 0.5817346904832773 -0.35953380788149186 0.5638383419558164 -0.38589806283019235 0.9098242886127087 -1.8473149187799855
-0.403947362341686 0.38624948166211026 -2.37570311281585 1.6526391805336158 -2.657179017126894 0.6228495449074716 1.2110529401778158 1.2952085294078461
-1.547744160129823 0.49011767565556513 1.801575324745721 -2.651503431397689 -1.3998727730969904 -2.300357001451302 0.8037999376059444 -0.670052967950966
2.2103099728239277 -1.5684329694815942 -0.7983089648563311 1.0714605356468176 -1.562787391511096 2.2971077346524007 -0.8873531454170887 -1.8746816207241972
-1.0924192798153671 -0.706913800419861 0.44456156215713866 -0.970264193999404 -0.6559983373169874 -3.319056427325718 -0.2525300392928064 -2.0881809848556685
-0.6327887292944608 0.9809538686522274 2.499100579913024 0.06311350773511826 -1.1824487219354427 -2.1833489496779124 0.7353833014016724 1.5411350741833088
0.2358649699429759 -1.863823227000768 1.504501756021654 -1.5882515915992972 0.36200799919111754 -1.2319907359956548 1.0428911249844661 -2.8503357787855372
-2.5859329355039264 0.3737194724173102 0.7165669877374312 1.0605783595561582 -1.5807630025806623 1.3543414152595086 0.6619533723048568 -1.7464523308667277
-1.6055875638960746 -2.077330861758185 0.47210839264787446 -0.8648468121618492 1.076890918599464 0.7756214649713742 0.5859921662258866 2.17895331035383
-0.9216053408449804 -2.719608972595159 1.3041994344098733 1.6316316356884066 0.5534949857924111 -2.5827352220779662 -0.3545727868840555 2.134686099537403
-0.7754041623795626 -1.9923976174331528 -0.8312366563227594 -2.21437177684303 1.3717504607896827 0.3490228969603705 2.5125545312277326 0.9706244673624528
-1.6774305813368557 -1.1497370210739786 0.9425733064438468 -2.003713617739043 -2.002009516106183 -1.6930750544789024 1.7482509462344349 1.8278911684950494
-2.4167454043659435 -0.5102186695058009 -0.1293925470971836 -0.5208142609979942 2.109196526503079 -0.3886129998240735 -2.948975013309282 -0.90927394079919
-0.2336564834060361 -2.4417437918678373 -1.6389862670999762 -0.6842789687863651 -0.6748884884315899 0.9974342873964012 0.5447913193476217 -2.3399297597499236
0.6456420208639418 0.8785231080570632 -1.5201448310127617 -0.8563033965800565 1.2027302045928734 -1.6471360722020194 1.140665346586519 -1.4830935316973008
0.4377361156594213 -2.917190617221637 -1.1011469386419384 1.1866481375772233 1.1532417594748139 -0.2982564034521767 -1.2024585140578308 0.21153144817536318
1.324312372373549 -2.313942401768416 -1.2802422834751888 0.9939864536301732 0.7451030893948106 -1.8704126213590255 0.10368082291443596 -2.079478734226167
-1.8344595943867008 -0.274224418667259 3.2115848427114373 0.2951733310276117 -0.043609935199723227 -2.704767680310177 0.5850671711907375 0.3979629511381499
-0.3720771872051828 -1.2933237993997697 -1.8801302663048491 1.7259975466698276 -2.1588889819702626 -0.38704879027806904 1.4774996992125504 -1.2713977183595093
-1.9954525138255501 1.7211387181167401 -0.6153001876456212 0.8998203169949038 -0.34056098447028693 1.3241865784283757 -2.601640821075215 -2.2060769682025567
-1.132769492499667 1.8609146115527324 0.6259110450627932 -1.3693405525627171 -0.12568360013156785 0.2830657750683661 0.23692483312300855 -2.639844793337509
-3.2226466025240885 0.30702190842421156 -0.7284690414995647 -1.2051940397787264 1.8059610257299108 0.8580668010346726 -2.271930384860492 2.311805252010839
-1.0613791894476552 -0.08055870988982207 -1.8961290648225964 -1.176461138529405 0.04734716289890015 -0.3801419449120953 -0.22309315068689262 -0.2477957876699243
-0.7183620834752931 -2.4644408596476937 1.027592323407937 -2.0351080336899483 -0.87488068485562 -1.6346296645960512 1.6574566028617703 0.7087181008925268
-1.4044213617834815 1.2800911800247914 -1.2969031476802002 1.4565654833320936 -0.4769083174216855 -1.4612377612500038 2.510386276966595 -0.8246766135068689
00000000: 01b1 8e0b 245a e8bf 4345 ae0f 71c5 e3bf
00000010: 08a5 a944 140f e6bf e902 242f d6b4 e5bf
00000020: fbea 14e1 b317 e3bf 5b22 55a4 2818 ecbf
00000030: 8ce0 f3d9 fee0 e0bf d610 6925 eff7 e7bf
00000040: ba20 e6f5 5954 e5bf 8d32 39c4 3d7f ddbf
00000050: 4675 50b6 2c66 f3bf ca40 0d23 eeb2 e33f
00000060: 05e0 da5b 4820 ffbf 701e 064f aaa1 dd3f
00000070: 6172 9188 c95b 00c0 8be6 22a4 64cd db3f
00000080: 7aee acf2 4573 f33f 3e54 5086 a41e e7bf
00000090: b422 eb27 1027 e13f 71fd ad3d fc07 f7bf
000000a0: d616 29e4 3c14 babf c054 2aa0 833f f4bf
000000b0: 3631 ab8e dd1b 0040 7419 a2de b0b7 e23f
000000c0: 3c80 d510 b474 0040 3043 bdcd c0cf edbf
000000d0: 915e fc6f ee03 f8bf d157 a37b df37 09c0
000000e0: 1222 16f0 65d9 f43f cc67 0d46 517d f3bf
000000f0: 216b 0393 b0f2 02c0 626e 13e1 21b8 fd3f
00000100: f8b6 734b 3cfc 08c0 4666 f8aa 521f c5bf
00000110: df94 dc4f 5537 ff3f 3ace a73f 4a8a c73f
00000120: 253c 09e2 7041 00c0 c8d5 c137 e768 d73f
00000130: 8f3f 7f77 258a f0bf 5492 5480 f0bf e63f
00000140: 57a0 3512 acec f0bf 0de7 14ba 9f64 edbf
00000150: 5574 aa65 063b cebf 6004 29ef 19ec fe3f
00000160: 8583 6f6f 8593 c63f 402f 4a0f 0e17 d7bf
00000170: 3b5e 2501 f160 f8bf 775a 5686 c95b c93f
00000180: 3d2c 877e 961f 10c0 ff61 730e 57f0 dc3f
00000190: a2d5 64ca 77aa 01c0 4cc5 a291 5a2c acbf
000001a0: 6b17 8220 5f30 f63f 103a 8607 6c65 cdbf
000001b0: a4d0 bf77 924a 01c0 e92f 5e51 9cd3 e33f
000001c0: c3e2 b10a a27f 03c0 0c86 401c 1261 e7bf
000001d0: 2561 d211 929d e23f 1912 aa16 9a02 d7bf
000001e0: 8acb ddb4 f60a e23f ea81 dcc9 8db2 d8bf
000001f0: 6b56 96d3 471d ed3f bd2a 9916 9a8e fdbf
00000200: 3f08 a409 46da d9bf 5c7c f5be 4fb8 d83f
00000210: 5365 34a2 7001 03c0 92ae 07c8 3571 fa3f
00000220: 626b 9112 e741 05c0 2898 362b 62ee e33f
00000230: 239d 3c0c 7960 f33f 48e9 3494 2cb9 f43f
00000240: 3c52 6561 8fc3 f8bf c375 0887 165e df3f
00000250: e503 d1a5 40d3 fc3f c8ad 586e 4736 05c0
00000260: cd32 30fe e065 f6bf 1edd 5292 2167 02c0
00000270: 7e6b 91a5 bab8 e93f 03fd fdeb 1271 e5bf
00000280: 4e69 bafe b6ae 0140 0c44 5e2b 4d18 f9bf
00000290: 762b 053e bf8b e9bf 70ec 78cd b324 f13f
000002a0: c942 125a 2d01 f9bf 02c4 1d05 7a60 0240
000002b0: 4c36 726c 3265 ecbf 64c3 b627 b2fe fdbf
000002c0: e13a 85a3 8c7a f1bf b69e bcb0 099f e6bf
000002d0: 5d82 a156 b273 dc3f b5a1 b67e 670c efbf
000002e0: 0338 a039 f0fd e4bf 5d8a c774 6d8d 0ac0
000002f0: ee4a 01c1 7329 d0bf 60ac 703b 98b4 00c0
00000300: 7f1b 3326 ce3f e4bf 34df 175e f963 ef3f
00000310: eb20 e171 28fe 0340 387e a8f3 3428 b03f
00000320: 3b8e de59 4feb f2bf 0dfb 74a7 7f77 01c0
00000330: 226e b18f 4288 e73f 9f5f 6540 7da8 f83f
00000340: 5cab 16c6 d230 ce3f 4ee5 d74d 38d2 fdbf
00000350: 8233 ee6e 7012 f83f a8d2 3b80 7a69 f9bf
00000360: bfa3 5a99 232b d73f 8e38 01eb 3bb6 f3bf
00000370: 078d b19a aeaf f03f 4505 44d8 7ccd 06c0
00000380: f01b 5d9b fdaf 04c0 4249 fa13 05eb d73f
00000390: 4c37 37e4 1dee e63f 7639 9203 21f8 f03f
000003a0: a9f8 6c25 ce4a f9bf f186 62e7 61ab f53f
000003b0: 39d7 b0d6 b82e e53f 7187 d1ff 77f1 fbbf
000003c0: 68c4 dc95 7cb0 f9bf 81c8 91a4 5f9e 00c0
000003d0: 6dbe a51e 0637 de3f b31e c938 d3ac ebbf
000003e0: d1e7 cbf8 f13a f13f ce15 441b e4d1 e83f
000003f0: 49e0 b4a4 72c0 e23f 59d8 bb12 7f6e 0140
00000400: a1f0 d77b ca7d edbf 8ca2 5959 c2c1 05c0
00000410: 9d08 e439 00de f43f 3d69 26c6 291b fa3f
00000420: f94e cf1d 3bb6 e13f d46a 8815 71a9 04c0
00000430: 7bfd ed0e 52b1 d6bf 5de9 454e d613 0140
00000440: a347 d363 1cd0 e8bf 330f f852 dce0 ffbf
00000450: 8990 c49d 7d99 eabf 4fcf d58c 08b7 01c0
00000460: 79d5 759c b0f2 f53f 7eff ff21 6456 d63f
00000470: 5a51 a830 b619 0440 e99c 000b 5b0f ef3f
00000480: da6e 0273 c1d6 fabf 1236 88a5 5265 f2bf
00000490: fa48 a87e 8f29 ee3f 8be9 5501 9b07 00c0
000004a0: 9ca7 af90 1d04 00c0 9b90 4ade d516 fbbf
000004b0: 7e72 f4fb d5f8 fb3f dd55 55cf 0a3f fd3f
000004c0: 8714 549d 7e55 03c0 e6c0 6a1a b653 e0bf
000004d0: 1b74 105b ef8f c0bf 7edb 48ab 82aa e0bf
000004e0: 1657 b16d a2df 0040 d0de 420f 09df d8bf
000004f0: 8513 3736 8097 07c0 4dcd daa9 c518 edbf
00000500: e517 5da5 74e8 cdbf 6344 1af8 b088 03c0
00000510: ad99 fca9 4939 fabf bae5 0802 9de5 e5bf
00000520: 7356 48be af98 e5bf f9d9 884f fbea ef3f
00000530: 6cc4 7734 ee6e e13f 2581 0818 2db8 02c0
00000540: 5d16 9174 19a9 e43f e054 3c7e dc1c ec3f
00000550: d321 e662 8352 f8bf 617b 7861 d666 ebbf
00000560: 5934 ea06 623e f33f 8db6 a25a ab5a fabf
00000570: 4d50 744e 2a40 f23f e5c8 7848 c0ba f7bf
00000580: 2842 4257 de03 dc3f e451 c908 6856 07c0
00000590: 1cec 9840 4c9e f1bf 440e ecc1 82fc f23f
000005a0: 9336 95a1 ad73 f23f 5d94 a906 a216 d3bf
000005b0: 5fcd 8a23 453d f3bf d88d fe65 7613 cb3f
000005c0: 6585 902b 6230 f53f 6262 e33b f482 02c0
000005d0: 7db7 2755 df7b f4bf 9246 e0ad bcce ef3f
000005e0: 452d 236f e2d7 e73f cc33 ecc8 35ed fdbf
000005f0: 83ce a38f d38a ba3f b6d4 21bf c5a2 00c0
00000600: c196 bb4d f259 fdbf fa30 7c93 e48c d1bf
00000610: 0d33 de64 53b1 0940 f08e daae 1ee4 d23f
00000620: a04e ed9a 0a54 a6bf 11ae d13c 5da3 05c0
00000630: 4747 c7c9 deb8 e23f ab1c 0a99 3978 d93f
00000640: 4e92 a8d5 1cd0 d7bf b5f7 d84b 74b1 f4bf
00000650: 4efc 5f79 0315 febf 32c5 7e9a af9d fb3f
00000660: 5c0e 2a96 6745 01c0 c4d7 0c4a 68c5 d8bf
00000670: de7b 7fb9 d6a3 f73f 8102 4922 a557 f4bf
00000680: aba0 799d 5fed ffbf 5c0d a3c0 c889 fb3f
00000690: b023 e504 8ab0 e3bf 759f 38fa 53cb ec3f
000006a0: 06fb a54c c0cb d5bf a56e 0244 de2f f53f
000006b0: 31a7 1310 29d0 04c0 4a1c 77ae 0ba6 01c0
000006c0: d614 43e7 d21f f2bf cd47 5466 4ec6 fd3f
000006d0: 02ff 9799 7607 e43f ba7e a5a3 d1e8 f5bf
000006e0: 3bb4 1a74 6616 c0bf 0946 a2e9 bf1d d23f
000006f0: 72d1 ef8c 8d53 ce3f 2f34 6ff2 661e 05c0
00000700: 7440 23f1 fac7 09c0 8799 f537 3fa6 d33f
00000710: 7c73 ac4e 9e4f e7bf a7f0 a28b 7948 f3bf
00000720: f1c4 7563 37e5 fc3f b245 0782 4875 eb3f
00000730: b61d 6ed6 e92c 02c0 59dc 80c0 937e 0240
00000740: 9b52 b5be 68fb f0bf 297e 62e0 7e9f b4bf
00000750: a487 266e 8b56 febf c2fa 2fea c8d2 f2bf
00000760: 1c17 6b28 e33d a83f e00e 4fe1 3e54 d8bf
00000770: fcb5 14fd 508e ccbf 4d7f 10ba c5b7 cfbf
00000780: 4ecf e67a d2fc e6bf 5de7 f8c4 2cb7 03c0
00000790: 1f86 eaa5 0471 f03f 9933 84b8 e647 00c0
000007a0: 4d6c 2bc7 05ff ebbf 0f2f 686f 7127 fabf
000007b0: fd49 fd36 f184 fa3f 0b55 2d95 d1ad e63f
000007c0: 149f aa88 8278 f6bf 25ac a1e3 407b f43f
000007d0: cdda d583 1dc0 f4bf e74c b69b 174e f73f
000007e0: c40e a176 aa85 debf fffb c3d8 3a61 f7bf
000007f0: 9630 7f66 4515 0440 9337 9935 c063 eabf
